…
json', 'bin_size': 500, 'seq_len': 2500000, 'rand_shift': True}, 'model_opts': {'model': 'MultiHeadAttModel', 'cnn_channels': [180], 'cnn_sizes': [11], 'cnn_pool': [10], 'enc_layers': 3, 'num_heads': 6, 'd_inner': 256, 'da': 64, 'r': 32, 'att_C': 0.1, 'fc': [128, 64], 'fc_dropout': 0.2, 'in_dim': 8, 'seq_len': 5000}, 'train_opts': {'valid_chroms': ['chr20', 'chr21', 'chr22', 'chrX'], 'learning_rate': 0.0001, 'batch_size': 128, 'num_epoch': 300, 'patience': 10, 'num_workers': 16, 'use_scheduler': False}}
##sample size: 223810
MultiHeadAttModel(
  (cnn): ModuleList(
    (0): Sequential(
      (0): Conv1d(8, 180, kernel_size=(11,), stride=(1,), padding=(5,))
      (1): BatchNorm1d(180, eps=1e-05, momentum=0.1, affine=True, track_running_stats=True)
      (2): LeakyReLU(negative_slope=0.01)
      (3): MaxPool1d(kernel_size=10, stride=10, padding=0, dilation=1, ceil_mode=False)
    )
  )
  (encoder): TransformerEncoder(
    (layers): ModuleList(
      (0): TransformerEncoderLayer(
        (self_attn): MultiheadAttention(
          (out_proj): NonDynamicallyQuantizableLinear(in_features=180, out_features=180, bias=True)
        )
        (linear1): Linear(in_features=180, out_features=256, bias=True)
        (dropout): Dropout(p=0.1, inplace=False)
        (linear2): Linear(in_features=256, out_features=180, bias=True)
        (norm1): LayerNorm((180,), eps=1e-05, elementwise_affine=True)
        (norm2): LayerNorm((180,), eps=1e-05, elementwise_affine=True)
        (dropout1): Dropout(p=0.1, inplace=False)
        (dropout2): Dropout(p=0.1, inplace=False)
      )
      (1): TransformerEncoderLayer(
        (self_attn): MultiheadAttention(
          (out_proj): NonDynamicallyQuantizableLinear(in_features=180, out_features=180, bias=True)
        )
        (linear1): Linear(in_features=180, out_features=256, bias=True)
        (dropout): Dropout(p=0.1, inplace=False)
        (linear2): Linear(in_features=256, out_features=180, bias=True)
        (norm1): LayerNorm((180,), eps=1e-05, elementwise_affine=True)
        (norm2): LayerNorm((180,), eps=1e-05, elementwise_affine=True)
        (dropout1): Dropout(p=0.1, inplace=False)
        (dropout2): Dropout(p=0.1, inplace=False)
      )
      (2): TransformerEncoderLayer(
        (self_attn): MultiheadAttention(
          (out_proj): NonDynamicallyQuantizableLinear(in_features=180, out_features=180, bias=True)
        )
        (linear1): Linear(in_features=180, out_features=256, bias=True)
        (dropout): Dropout(p=0.1, inplace=False)
        (linear2): Linear(in_features=256, out_features=180, bias=True)
        (norm1): LayerNorm((180,), eps=1e-05, elementwise_affine=True)
        (norm2): LayerNorm((180,), eps=1e-05, elementwise_affine=True)
        (dropout1): Dropout(p=0.1, inplace=False)
        (dropout2): Dropout(p=0.1, inplace=False)
      )
    )
  )
  (att_first): Linear(in_features=180, out_features=64, bias=True)
  (att_second): Linear(in_features=64, out_features=32, bias=True)
  (fc): ModuleList(
    (0): Sequential(
      (0): Dropout(p=0.2, inplace=False)
      (1): Linear(in_features=720, out_features=128, bias=True)
    )
    (1): Sequential(
      (0): ReLU()
      (1): Linear(in_features=128, out_features=64, bias=True)
    )
    (2): Sequential(
      (0): ReLU()
      (1): Linear(in_features=64, out_features=1, bias=True)
    )
    (3): Sigmoid()
  )
  (fc_dist): Sequential(
    (0): Linear(in_features=720, out_features=180, bias=True)
    (1): ReLU()
    (2): Linear(in_features=180, out_features=1, bias=True)
  )
)
{'total_param': 931522, 'trainable_param': 931522}
Fold splits(validation): 
  - Fold0: 44956({'chr1': 0.604, 'chr10': 0.138, 'chr15': 0.202, 'chr21': 0.056})
  - Fold1: 45554({'chr19': 0.511, 'chr3': 0.21, 'chr4': 0.079, 'chr7': 0.145, 'chrX': 0.055})
  - Fold2: 44827({'chr13': 0.024, 'chr17': 0.457, 'chr2': 0.234, 'chr22': 0.114, 'chr9': 0.171})
  - Fold3: 44676({'chr12': 0.391, 'chr14': 0.179, 'chr16': 0.25, 'chr18': 0.059, 'chr20': 0.121})
…
